oghr_net.onnx (onnx, 926838 bytes, 12 tensors)

actor.0.weight f4 [256, 301]
0.022360781 -0.00933012 -0.024970515 0.0032396386 -0.0033935497 0.017092144 -0.0031319293 0.00955748
-0.009871237 -0.017298136 -0.0033583504 -0.024219029 0.093197025 -0.03015745 0.016146699 0.021231705
0.012598447 0.050324246 -0.060481314 -0.015597699 0.08710429 0.06142401 0.033706192 -0.007169237
-0.043317523 0.019587683 -0.0014849759 -0.0248424 -0.014286154 0.003046004 0.07176249 0.010489109
-0.035246845 -0.028924054 -0.0028532038 -0.008142853 -0.011647204 -0.00015031785 0.004315862 0.0010000312
0.001980351 0.02315057 0.009769739 -0.0011234627 -0.00022358263 -0.004405428 0.00020614763 0.008600425
-0.0010020385 0.015747434 0.011539075 0.0016132707 0.009774566 0.0022756536 -0.0013541889 0.01582529
-0.014613921 -0.010606966 0.007000278 -0.011336028 -0.0144501785 0.0071579823 -0.009219118 -0.014803624
0.0069589564 0.010242161 -0.014894826 0.015868863 0.029371103 0.014185647 0.0014613594 -0.0027457676
0.043238543 0.013887439 -0.003966957 0.019317657 0.0096414555 0.02019086 -0.019208182 0.035137057
0.031992227 0.031797305 -0.01898479 -0.02303945 0.054802667 0.017195404 -0.0011746306 0.016127674
-0.04641389 -0.013984343 0.021441968 0.0065955864 0.012660769 0.014285245 0.013708595 0.020704307
0.009278116 0.014219141 0.03813916 0.046180535 0.04181938 -0.012633033 -0.037361417 0.008710352
0.010554652 -0.0055104173 -0.005848745 0.0003916064 0.062225845 0.0037774844 -0.014607303 -0.013280937
-0.0066785063 -0.011434522 -0.03832596 0.011498672 0.011448248 -0.009872713 -0.0060983053 -0.0001079466
0.0643834 0.005558207 -0.016477522 -0.017137032 -0.007802516 -0.0095209805 -0.038065266 0.014593965
0.010818832 -0.017338539 -0.013293082 0.0023543437 0.06412693 0.00747736 -0.019474648 -0.023358606
-0.005276405 0.005235145 0.0014252245 0.0035844177 0.004575957 0.0063244333 0.0018032009 0.0049220272
0.00014287501 0.0035337498 0.006044396 -0.0003787661 -0.0018715147 0.0028968428 -0.0062944503 -0.0015065176
-0.0033112522 0.00558929 0.0043944526 0.0033037192 -0.0018324219 0.0021439898 -0.009662918 -0.0020573386
-0.0056813774 0.0056675225 -0.000569957 -0.009776282 -0.0030345551 0.0029107474 0.0006060023 0.009380811
-0.0007771264 0.0100678345 -0.0012860423 0.00027635728 -0.00396469 0.00010560913 0.00028629234 0.00055573555
0.0004911224 2.535303e-05 0.000693409 0.00057233166 0.0005908877 0.009988919 0.008054861 0.0068683247
0.00894891 0.007824504 0.006007844 0.0051976624 0.01912506 0.0011737439 0.0013598914 0.00048490663
0.0020454368 0.0010220665 0.0004164172 -0.003561496 -0.0017127268 0.0012737259 0.0013664342 0.0020169762
0.00086938986 0.00040147785 0.00081152725 0.0013882912 -0.0009334904 0.008195049 0.005524042 0.005554051
0.005744521 0.007485383 0.0074800653 0.005475968 0.0062889373 0.002431207 0.0018199328 0.0017034853
0.0024699778 0.0037550656 0.002702431 0.0015113016 0.0021160743 0.0033766893 0.0029034195 0.0041923
0.00278704 0.0024163108 0.0022693805 0.00068468694 -0.00070108136 -0.0016530209 -0.0032192771 -0.002837393
-0.0015282243 0.00021947852 -0.0017562786 -0.0001078627 -0.0003617124 -0.00016706363 0.00018441571 0.0009240789
0.00013746777 0.000752771 -0.0011516981 7.935092e-05 -0.0020752323 -0.0037733743 -0.005449216 -0.006109346
-0.004337207 -0.0047156066 -0.006984318 -0.0056144916 -0.0021803877 0.0064869337 0.0060961507 0.004698503
00000000: f52d b73c 5cdd 18bc f78e ccbc 1e50 543b
00000010: 5166 5ebb d304 8c3c 0e41 4dbb fa96 1c3c
00000020: f8ba 21bc d2b4 8dbc c517 5cbb fc66 c6bc
00000030: 15de be3d c20c f7bc 1546 843c 1dee ad3c
00000040: b769 4e3c cc20 4e3d 41bb 77bd 7e8d 7fbc
00000050: bc63 b23d be97 7b3d 810f 0a3d ebeb eabb
00000060: b76d 31bd 5976 a03c 86a3 c2ba 4a82 cbbc
00000070: 7910 6abc 789f 473b 36f8 923d 83da 2b3c
00000080: ff5e 10bd 23f2 ecbc d1fc 3abb 9a69 05bc
00000090: ead3 3ebc a49e 1db9 136c 8d3b 7b13 833a
000000a0: c7c8 013b 44a6 bd3c 4111 203c 2741 93ba
000000b0: 8171 6ab9 695b 90bb 5529 5839 cce8 0c3c
000000c0: d556 83ba c300 813c 630e 3d3c 6274 d33a
000000d0: 8025 203c 2223 153b 0a7f b1ba 0aa4 813c
000000e0: 3a6f 6fbc d7c8 2dbc 9762 e53b bfba 39bc
000000f0: 71c0 6cbc 828d ea3b c90b 17bc e68a 72bc
00000100: f507 e43b bdce 273c 6e09 74bc 6bff 813c
00000110: ab9b f03c ea6a 683c 168b bf3a 56f2 33bb
00000120: e61a 313d 2488 633c 3ffd 81bb 1040 9e3c
00000130: 32f7 1d3c 4d67 a53c 7a5a 9dbc e0eb 0f3d
00000140: 480a 033d e43d 023d fe85 9bbc 3bbd bcbc
00000150: c378 603d 60dd 8c3c 10f6 99ba 2f1e 843c
00000160: 7e1c 3ebd 961e 65bc 11a7 af3c ca1f d83b
00000170: 1d6f 4f3c a90c 6a3c 049a 603c 149c a93c
00000180: 3d03 183c 66f7 683c cf37 1c3d cd27 3d3d
00000190: cc4a 2b3d c8fa 4ebc 4908 19bd ddb5 0e3c
000001a0: 6bed 2c3c bb90 b4bb d4a6 bfbb 8550 cd39
000001b0: 87e0 7e3d ac8f 773b 7853 6fbc 4a98 59bc
000001c0: 5fd7 dabb dd57 3bbc affb 1cbd ed64 3c3c
000001d0: 6f91 3b3c 29c1 21bc 4bd4 c7bb 6461 e2b8
000001e0: 72db 833d 9f21 b63b defb 86bc f662 8cbc
000001f0: 40ac ffbb e3fd 1bbc 53ea 1bbd 871b 6f3c
00000200: 7841 313c 8d09 8ebc 3acb 59bc 554b 1a3b
00000210: fb54 833d a404 f53b 4c89 9fbc 8c5a bfbc
00000220: b1e5 acbb 948b ab3b 99ce ba3a 8de8 6a3b
00000230: e9f1 953b 313d cf3b 6259 ec3a f548 a13b
00000240: b8d0 1539 7c96 673b 1210 c63b 2095 c6b9
00000250: 9d4d f5ba f5d8 3d3b ad41 cebb 5876 c5ba
00000260: 9801 59bb 5d26 b73b 57ff 8f3b 3683 583b
00000270: e02d f0ba 2e82 0c3b 3751 1ebc 6ad4 06bb
00000280: d92a babb a0b6 b93b 2b69 15ba b32c 20bc
00000290: 63df 46bb 3dc2 3e3b 20dc 1e3a f9b1 193c
000002a0: 12b8 4bba 8ff3 243c 6b90 a8ba 0ce4 9039
000002b0: 3bea 81bb 787a dd38 8219 9639 c8ae 113a
000002c0: abbe 003a 38ad d437 e4c5 353a 8708 163a
000002d0: cde5 1a3a 90a8 233c 89f8 033c af0f e13b
000002e0: 739e 123c 5932 003c 73dd c43b 2751 aa3b
000002f0: 28ac 9c3c 4fd8 993a 623e b23a 113b fe39
00000300: bc0c 063b dcf6 853a 9252 da39 fd67 69bb
00000310: 937d e0ba 26f3 a63a ec19 b33a 3f2f 043b
00000320: c4e7 633a 727d d239 acbc 543a 53f7 b53a
00000330: 7bb5 74ba 8744 063c 0603 b53b c2fe b53b
00000340: 893c bc3b f247 f53b 561b f53b c06f b33b
00000350: 6e13 ce3b e354 1f3b d08a ee3a 7b47 df3a
00000360: 5adf 213b 8c17 763b 451b 313b de16 c63a
00000370: d6ad 0a3b 724b 5d3b 4c47 3e3b 905f 893b
00000380: c6a6 363b f85a 1e3b e3b9 143b 907c 333a
00000390: c6c8 37ba 2daa d8ba 82fa 52bb 8ef3 39bb
000003a0: b34e c8ba d123 6639 ee32 e6ba 5934 e2b8
000003b0: 37a4 bdb9 cd2d 2fb9 b75f 4139 e33d 723a
000003c0: 3925 1039 9b55 453a 93f4 96ba 3369 a638
000003d0: 9f00 08bb b74a 77bb 568f b2bb e930 c8bb
000003e0: 211f 8ebb 6085 9abb b5dc e4bb c5f9 b7bb
000003f0: d6e4 0ebb 5890 d43b 38c2 c73b e6f5 993b

actor.0.bias f4 [256]
0.0036928507 -0.032628104 -0.0042340304 -0.019057881 -0.007201708 -4.7399397e-05 -6.582075e-05 -0.008065498
-0.00016982574 -0.00020514491 -0.02696867 -0.00016169742 0.0005850232 -0.020653116 2.7609829e-05 -0.000129252
0.00037013032 -0.009972962 -0.007451061 -5.132986e-05 3.991752e-05 0.0029316642 0.0057560666 -0.0001350771
-0.00011934123 0.021761615 0.006834826 0.029118713 0.0062666573 0.0021013876 0.007137243 -0.015675798
-0.016786262 -0.02259838 0.009864282 0.028992092 6.460059e-05 -0.0013383053 0.022698883 0.012169832
0.057408515 0.024528367 0.0001405333 -0.0008385875 0.015469532 -0.0030166686 -0.00060481625 -0.00011615051
-0.015174483 -0.0007321672 -0.0007236307 0.00015626785 -8.2575796e-05 0.004072767 0.051977616 -0.013115796
-0.012984395 0.0009341377 -0.016039217 -7.965808e-05 -0.00040378032 0.016569795 -0.0004561748 0.0022857494
-0.015421196 4.8733615e-05 0.00017816585 -0.00034890612 0.0015095794 -0.00034062425 0.00011040424 0.0007854188
-0.0003319977 0.012213642 0.001031845 0.00015158507 -0.0011469322 -0.020445984 0.00016550074 -0.016603809
0.0007039979 -0.0005333812 7.347782e-05 -0.06077901 0.0001472289 -0.008174057 -0.001763501 -0.0030656822
-0.0018217864 0.0008757334 6.43093e-05 0.01761534 -0.0046012476 0.00033464102 -0.0002003639 0.031861577
0.045679823 -0.0011053148 -8.4054285e-05 0.025931897 0.007069876 0.015849477 -0.011434405 -0.0002128366
7.261843e-05 -4.7230926e-05 -8.166518e-05 0.0001007804 -0.013255953 -0.00021300274 -0.00019837519 -2.938684e-05
-0.0054959115 -0.016469318 -0.0031641964 -0.0004245241 0.008767613 -0.00040053134 -0.0118697835 0.0013906084
-0.01675922 -0.00048589817 0.002802399 -0.005513222 0.0001541143 -0.0031450728 -0.008172204 -0.0067909188
-0.013243744 0.023565838 -0.0003854347 0.050754562 -0.0057476456 -0.00048239957 0.002296447 0.00014133565
-0.00014675081 -0.02360922 0.0151618915 0.010333568 0.0005777708 0.00027651107 -0.0017749552 1.2621731e-05
0.00014071718 -0.0062574446 -0.0009264318 0.0012682602 -0.0016852925 0.0002776866 -0.002137834 -0.00035501394
0.000112919515 0.0040679406 0.0063217417 0.0047579557 0.003763944 0.0039111665 -0.018877102 0.00052232854
-0.003480422 -0.011554731 -0.0073594246 -0.01961398 0.01254532 0.010227658 0.00016171577 -0.045412913
-0.0120903775 -0.018128317 0.00043544552 -0.013702295 0.00048249227 -0.01157764 0.00097253936 -0.0018768484
-0.00014940796 0.012271912 -0.007606625 -0.00041919618 0.004305391 0.005335679 -0.00046025933 -0.019696966
0.000179876 0.00021691603 -0.00042904625 -0.010584785 0.0007236451 0.0011926397 -8.556051e-05 -0.016426047
-0.00032949608 0.035976242 -0.0001249911 0.00027809665 0.026004143 0.0002792385 0.014201533 -7.026244e-05
-0.003509903 -0.012236551 -0.00044177615 -0.012782655 -0.02385256 0.0022955474 -0.00035596717 0.0870067
-0.00037329036 0.008926051 0.043979537 0.0114828795 0.033071086 0.00021496598 -0.0014103244 0.017340679
0.007260709 -0.0065477714 0.00022891097 0.029867042 0.0058874898 -0.0060324324 0.00068124436 0.0006590801
-0.008670747 -5.6876743e-05 0.006126939 -0.0050799986 0.00017814444 0.00091524207 0.0120934555 -0.015239034
-0.008225069 -0.00051989674 -0.0013102038 -0.008824792 0.0035613375 -0.00029394933 -0.00022236083 -0.011375472
-0.012926113 0.0030166537 0.031237401 -0.015192094 0.021958012 0.000320264 -0.00017727254 -5.6939974e-05
0.00038763988 0.0009122216 -7.323724e-05 9.5996256e-05 0.0003714106 -0.011094366 -0.00031080155 0.0050630546
00000000: c103 723b 0ca5 05bd 9fbd 8abb 461f 9cbc
00000010: 4efc ebbb b7ce 46b8 3f09 8ab8 2725 04bc
00000020: 4013 32b9 2b1c 57b9 66ed dcbc 528d 29b9
00000030: 3e5c 193a b930 a9bc a89b e737 d287 07b9
00000040: 0d0e c239 a265 23bc 0828 f4bb 044b 57b8
00000050: 1c6d 2738 2a21 403b 639d bc3b 7ca3 0db9
00000060: d646 fab8 6a45 b23c adf6 df3b 5e8a ee3c
00000070: 8858 cd3b 6fb7 093b 89df e93b 886a 80bc
00000080: 5883 89bc 3d20 b9bc cc9d 213c d380 ed3c
00000090: 2d7a 8738 136a afba 02f3 b93c fa63 473c
000000a0: 3125 6b3d b7ef c83c 1f5c 1339 a8d4 5bba
000000b0: ec73 7d3c 4db3 45bb 888c 1eba d595 f3b8
000000c0: 659e 78bc e9ee 3fba 09b2 3dba d5db 2339
000000d0: 8b2c adb8 d974 853b 7be6 543d a3e3 56bc
000000e0: 80bc 54bc ebe0 743a ad64 83bc 1b0e a7b8
000000f0: 7ab2 d3b9 61bd 873c bf2a efb9 83cc 153b
00000100: 2fa9 7cbc 5267 4c38 08d2 3a39 63ed b6b9
00000110: 14dd c53a d095 b2b9 d388 e738 90e4 4d3a
00000120: fa0f aeb9 ba1b 483c f93e 873a cff2 1e39
00000130: a954 96ba 567e a7bc 448a 2d39 b604 88bc
00000140: 808c 383a 9bd2 0bba 1b18 9a38 69f3 78bd
00000150: 7561 1a39 7bec 05bc 4625 e7ba 9de9 48bb
00000160: 02c9 eeba 7991 653a cbdd 8638 0c4e 903c
00000170: 10c6 96bb c272 af39 c618 52b9 4981 023d
00000180: c41a 3b3d 36e0 90ba 4d46 b0b8 216f d43c
00000190: 6baa e73b c3d6 813c 5f57 3bbc e42c 5fb9
000001a0: b94a 9838 d219 46b8 a943 abb8 115a d338
000001b0: 7f2f 59bc 7d59 5fb9 ef02 50b9 c283 f6b7
000001c0: 0c17 b4bb aaea 86bc 685e 4fbb a992 deb9
000001d0: 09a6 0f3c 68fe d1b9 7b79 42bc 1345 b63a
000001e0: a24a 89bc 26c0 feb9 74a8 373b 42a8 b4bb
000001f0: be99 2139 911d 4ebb b5e4 05bc 5b86 debb
00000200: 4afc 58bc 250d c13c 2b14 cab9 04e4 4f3d
00000210: bf56 bcbb 93ea fcb9 fd7f 163b 8033 1439
00000220: 1fe1 19b9 1f68 c1bc 9569 783c 204e 293c
00000230: 8b75 173a b0f8 9039 9da5 e8ba ecc1 5337
00000240: 7b8d 1339 400b cdbb c9db 72ba c03b a63a
00000250: 08e5 dcba 7796 9139 e71a 0cbb 2a21 bab9
00000260: 34cf ec38 5c4c 853b 9d26 cf3b a0e8 9b3b
00000270: 80ac 763b 3e29 803b 27a4 9abc e0ec 083a
00000280: cb17 64bb 0e50 3dbc 5427 f1bb 7fad a0bc
00000290: e38a 4d3c e891 273c 3f92 2939 e402 3abd
000002a0: b816 46bc d681 94bc 824c e439 977f 60bc
000002b0: 04f7 fc39 24b0 3dbc 03f2 7e3a 9500 f6ba
000002c0: 65aa 1cb9 2110 493c ff40 f9bb 8fc7 dbb9
000002d0: 3d14 8d3b ebd6 ae3b f64e f1b9 885b a1bc
000002e0: 199d 3c39 f473 6339 9df1 e0b9 ce6b 2dbc
000002f0: 00b3 3d3a 5952 9c3a f36e b3b8 eb8f 86bc
00000300: 37c0 acb9 d35b 133d 0b10 03b9 80cd 9139
00000310: a406 d53c c266 9239 8cad 683c dc59 93b8
00000320: 6706 66bb d17b 48bc 319e e7b9 576e 51bc
00000330: 7266 c3bc e570 163b 1ba1 bab9 9230 b23d
00000340: 2fb6 c3b9 923e 123c e323 343d b022 3c3c
00000350: 8c75 073d 7e68 6139 a2da b8ba 0a0e 8e3c
00000360: 3eeb ed3b b08e d6bb d207 7039 baab f43c
00000370: d8eb c03b b6ab c5bb 8995 323a 1ec6 2c3a
00000380: c00f 0ebc f08e 6eb8 7dc4 c83b 1e76 a6bb
00000390: 49cc 3a39 dbec 6f3a a123 463c 24ad 79bc
000003a0: 71c2 06bc ae49 08ba 25bb abba dc95 10bc
000003b0: 5465 693b 361d 9ab9 8829 69b9 3060 3abc
000003c0: 0cc8 53bc 0db3 453b 94e5 ff3c 43e8 78bc
000003d0: 4ae1 b33c 1be9 a739 3ce2 39b9 d5d2 6eb8
000003e0: 253c cb39 2822 6f3a f296 99b8 9951 c938
000003f0: e3b9 c239 25c5 35bc 14f3 a2b9 fbe7 a53b

actor.2.weight f4 [256, 256]
0.01214986 -0.0004818141 0.009129684 0.062492862 -0.022216853 -0.0020513535 0.0008866395 -0.012502822
0.0027606217 0.0020138272 -0.03941066 0.0010741045 -0.0032463172 0.010496481 0.0014863126 -0.0018331931
0.0011646914 -0.0060252068 -0.031424273 0.0014271956 -0.0013738787 0.009353125 0.0025621112 -0.0005299412
-0.0025360591 0.037669566 0.0088629285 0.046104115 -0.015094813 -0.011681847 -0.0136731155 -0.015266273
0.004178786 -0.01003598 -0.0026609146 -0.009697436 -0.0020980372 -0.0034797674 -0.12429714 -0.022473099
0.025511622 2.3738246e-05 -0.00039033903 0.0071310396 0.019941462 -0.038581565 0.0015634641 -0.0019654357
0.028549092 0.0006532827 -0.001549663 -0.0017790257 -0.0022014843 0.0016856435 -0.024035066 -0.01671216
-0.0010097293 0.00076962134 -0.006717748 0.0022249776 -0.00037924503 0.006910281 0.0015142945 -0.0023972075
0.01741342 -0.0013488024 0.0008229581 0.00022906203 0.0025882712 0.002316209 0.0009715453 0.000661137
-0.00077425514 -0.017419362 0.014268962 0.0011682936 -0.07555482 0.015704906 -0.0025650687 -0.051047742
0.0010102197 -0.00031578765 0.00046536757 0.00041550913 0.00078403234 -0.04035987 0.0006591463 -0.029461259
-0.018303553 0.00034314906 0.0018490119 0.008998617 0.002415363 0.002005998 0.0021858357 0.017469438
-0.040442213 -0.033879716 0.000363388 0.020167781 -0.008794133 -0.007910335 -0.028546402 -2.2487082e-05
0.0015043761 0.0019946815 0.0008238219 -0.002250187 -0.0031284406 -0.0026708508 -0.0010866419 -0.00015161034
0.0026906412 -0.021245262 0.0057650143 0.0003291283 0.018818721 -0.002331845 0.029458782 -0.002534303
-0.028528173 -0.009231289 0.010245001 -0.017887129 -0.0007100093 -0.0033124653 0.0069298674 0.0030028655
8.267687e-05 0.017718162 -0.0025752964 -0.012343078 -0.045900233 6.453504e-05 -0.005197963 -0.017863661
0.00087740057 0.018380085 0.0046678707 0.002636567 -0.0024757467 -0.0028515372 0.013459357 0.002074453
-3.9986957e-05 -0.009935096 -0.0021485046 0.00012390755 -0.0031972977 0.002593024 -0.00047648186 0.0026390906
-0.0023197355 -0.035192374 -0.018166117 0.008024614 -0.018011974 0.005487373 0.0036069409 0.0032522373
-0.02048157 0.019952135 0.01942146 -0.034343317 0.006323348 0.0071289022 0.002416043 0.014413404
0.0034940417 0.025474977 -0.0015216324 0.0076526464 -0.0022620915 -0.015579751 -0.0008890805 0.0012398034
-0.0014541313 0.02817067 0.007830027 -0.0019937544 0.0010567686 -0.014821642 -0.025779223 -0.02150563
0.001681243 0.0017167307 -0.0020349568 0.01460126 -0.0016471822 0.001999585 0.0010173373 0.0017377223
6.637677e-05 0.0013876667 2.8408844e-05 -0.0015582663 0.0060111885 0.0017160536 4.2986398e-05 0.001363234
2.9800169e-05 0.023669846 -0.00062792713 0.007064461 -0.04487268 -0.0018182596 0.0017706511 0.00018689479
-0.00026451977 -0.0023272736 -0.01652463 0.0058466196 -0.006556437 6.9701025e-05 0.022342525 0.003303984
-0.010818468 -0.03292396 0.0020569006 -0.016129661 0.002468259 -0.0074470113 0.02910684 0.00055743544
0.012001331 0.001406761 -0.008037393 -0.003978365 0.0010217134 0.00046702055 0.04443769 0.009117757
-0.0160638 0.0022049726 -0.0021886905 -0.020064346 -0.054712396 -0.0024418356 -0.00081930606 0.001047138
-0.018883245 -0.019834224 -0.0037567767 -0.011365728 0.015761932 -0.007672408 9.389763e-05 1.0515243e-05
0.045988858 0.0002881265 -0.0021592584 0.0011388418 -0.00071004464 0.006174635 -0.006256593 0.003180471
00000000: 3510 473c fe9b fcb9 ac94 153c 84f8 7f3d
00000010: 1e00 b6bc 0070 06bb 5f6d 683a a3d8 4cbc
00000020: 8ceb 343b 6afa 033b 126d 21bd f7c8 8c3a
00000030: 2ac0 54bb 6ff9 2b3c 60d0 c23a c147 f0ba
00000040: 8fa8 983a 196f c5bb bdb6 00bd bd10 bb3a
00000050: b813 b4ba d93d 193c 18e9 273b c0eb 0aba
00000060: 0334 26bb 674b 1a3d d135 113c abd7 3c3d
00000070: 3c50 77bc 3865 3fbc 3405 60bc 641f 7abc
00000080: 33ee 883b f36d 24bc bd62 2ebb ffe1 1ebc
00000090: 397f 09bb cf0c 64bb 808f febd 8119 b8bc
000000a0: c0fd d03c 7f21 c737 6ba6 ccb9 7fab e93b
000000b0: 475c a33c b407 1ebd 26ed cc3a 8ace 00bb
000000c0: c9df e93c 0f41 2b3a 101e cbba 322e e9ba
000000d0: c746 10bb cff0 dc3a 30e5 c4bc f1e7 88bc
000000e0: e558 84ba 6ac0 493a 8e20 dcbb eed0 113b
000000f0: 68d5 c6b9 a36f e23b 4b7b c63a 781a 1dbb
00000100: 97a6 8e3c 4cca b0ba c9bb 573a 5f30 7039
00000110: fc9f 293b 8acb 173b 4daf 7e3a 2750 2d3a
00000120: 62f7 4aba 0db3 8ebc 5dc8 693c 6e21 993a
00000130: 7cbc 9abd 93a7 803c b61a 28bb 7017 51bd
00000140: 5969 843a 4d90 a5b9 94fc f339 b1d8 d939
00000150: 8587 4d3a 6450 25bd 8fca 2c3a bd58 f1bc
00000160: 55f1 95bc b0e8 b339 8b5a f23a ef6e 133c
00000170: 114b 1e3b 1077 033b 3d40 0f3b 111c 8f3c
00000180: bca6 25bd 75c5 0abd 1d85 be39 e736 a53c
00000190: 4415 10bc 5a9a 01bc 25da e9bc a4a2 bcb7
000001a0: 7c2e c53a 34b9 023b c0f5 573a e077 13bb
000001b0: 8606 4dbb 7109 2fbb a76d 8eba 97f9 1eb9
000001c0: 7855 303b 8b0a aebc 72e8 bc3b da8e ac39
000001d0: b829 9a3c ded1 18bb 8b53 f13c 8d16 26bb
000001e0: eab3 e9bc d53e 17bc a6da 273c 0788 92bc
000001f0: eb1f 3aba f215 59bb f113 e33b b9cb 443b
00000200: ce62 ad38 ae25 913c 4ec6 28bb 9f3a 4abc
00000210: e201 3cbd fc56 8738 ad53 aabb d056 92bc
00000220: 5b01 663a d591 963c f0f4 983b 41ca 2c3b
00000230: 2340 22bb dbe0 3abb a384 5c3c 8cf3 073b
00000240: abb7 27b8 d0c6 22bc edcd 0cbb 2eed 0139
00000250: c189 51bb b9ef 293b 50d0 f9b9 98f4 2c3b
00000260: b406 18bb e125 10bd 1cd1 94bc ac79 033c
00000270: d98d 93bc 6ccf b33b 6d62 6c3b 7d23 553b
00000280: f7c8 a7bc a972 a33c c119 9f3c 94ab 0cbd
00000290: 1634 cf3b 9199 e93b 7a56 1e3b 3326 6c3c
000002a0: 4bfc 643b e6b0 d03c 8371 c7ba 0dc3 fa3b
000002b0: 993f 14bb 3642 7fbc 2f11 69ba e680 a23a
000002c0: 8d98 beba 2dc6 e63c 8349 003c a6a9 02bb
000002d0: 4583 8a3a 79d6 72bc f32e d3bc 932c b0bc
000002e0: 275d dc3a ec03 e13a e95c 05bb 203a 6f3c
000002f0: 43e6 d7ba 780b 033b 2d58 853a 49c4 e33a
00000300: c233 8b38 5ee2 b53a 874f ee37 be3e ccba
00000310: 81f9 c43b 34ed e03a 4b4c 3438 8bae b23a
00000320: 60fb f937 44e7 c13c 7a9b 24ba fe7c e73b
00000330: 6acc 37bd ab52 eeba 3115 e83a 30f9 4339
00000340: 3eaf 8ab9 2c85 18bb a95e 87bc 0095 bf3b
00000350: 61d7 d6bb 742c 9238 ac07 b73c a787 583b
00000360: f23f 31bc 46db 06bd 11cd 063b 5a22 84bc
00000370: 84c2 213b 0f06 f4bb 7871 ee3c dc20 123a
00000380: 3ba1 443c 1163 b83a 45af 03bc f25c 82bb
00000390: 03eb 853a 70da f439 4c04 363d a562 153c
000003a0: 3b98 83bc 4d81 103b 2270 0fbb fc5d a4bc
000003b0: 1b1a 60bd 3407 20bb b3c6 56ba 1f40 893a
000003c0: 09b1 9abc 627b a2bc 4134 76bb 5237 3abc
000003d0: 2b1f 813c d368 fbbb e8ea c438 a06a 3037
000003e0: d05e 3c3d af0f 9739 5882 0dbb 3145 953a
000003f0: 4a22 3aba 9854 ca3b 1b04 cdbb 736f 503b

actor.2.bias f4 [256]
-0.0028597375 -0.00042685843 -0.0005706733 0.009162104 -0.047290828 0.0003661074 0.008689628 0.00042594963
0.004232979 -0.0005782565 -0.00018274384 0.009479803 0.0042026904 -0.00032664364 -0.0033872896 0.0021190867
-0.0094711725 -0.0005310372 -0.0074275425 0.006008506 -0.052054442 0.00022670854 0.0006218259 0.044001106
-0.0069137434 0.019775884 0.000473852 0.0005939929 0.0006804588 -0.00034867637 0.026919402 0.003250867
-0.00405052 0.031427715 0.020846961 -0.021603689 -0.018159417 -0.021797448 -0.00022797578 -0.030054344
-0.02311003 0.0050411103 0.031015662 -0.041730933 -0.047702838 0.03333812 -0.00057030923 0.008337104
0.0003304365 0.00047836528 -0.028687958 0.002388614 0.0143550495 -0.017116306 0.00042442753 -0.0007180908
0.000586041 -0.0005183468 0.00052409805 -0.009309628 -0.074015215 0.00035192716 -0.018802345 0.018986115
0.09682719 0.0006081038 0.00026634743 -0.0017954801 -0.0002016548 -0.0066923783 -0.025144354 -0.022931328
-0.00059835013 0.0002947183 0.00043298438 -0.007813509 -0.00035462237 0.00047752957 0.03678406 -0.036781065
-0.0067297663 -0.00938469 -0.0018477127 0.004975924 0.00041758726 -0.0005654362 0.00044592816 -0.0013317444
0.0005912391 0.010256149 -0.00703549 -0.05493576 0.009082477 -0.016058149 0.010057136 -0.027822064
0.00032968525 -0.017734751 0.011038556 -0.014693454 -0.068475954 -0.00048446702 -0.007509195 -0.0139142815
0.0045955395 -0.007967825 -0.0005439858 0.00036419695 0.00025159848 0.007001911 -0.0044131987 0.0065889335
-0.0004927619 -0.011577685 -0.015974477 -0.00047130842 -0.037712358 0.0001380563 0.005898189 -0.0093670655
0.0005466713 0.10872993 -0.0006204146 -0.00034506992 0.0003224153 -0.0127169555 -0.019847328 -0.02785713
0.00080428034 0.00039094826 0.0030522381 0.00047254897 0.026773233 -0.035358995 -0.01611944 -0.021303127
-0.00027041553 0.0006297411 -0.00031784264 -0.0003832405 -0.012049766 -0.00013397193 -0.014976979 0.0006044212
-0.017847368 0.0003669639 0.023157261 -0.025611557 -0.041764457 0.0004916757 0.0006899173 -0.03229585
-0.00028109623 -0.012125519 -0.0005223667 -0.0014441535 0.0030433582 0.013391638 0.026607316 0.0005716145
-0.02166041 -0.0005655214 -0.03007718 -0.012673478 -0.00043554275 -0.0005519487 -0.00062776386 0.0006128046
0.0143662505 0.011636715 -0.0019343644 -0.00052159576 -0.012337051 -0.020181859 -0.00031317733 0.020668162
-0.01799348 -0.0013411029 -0.044125356 0.00058325543 0.0004703823 0.0006224979 -0.009856275 -0.0066116382
0.00041657966 -0.012045166 -0.09623666 0.00045573572 -0.008478446 -0.022250762 -0.00056185893 0.0003922661
0.000457569 -0.020798668 -0.00028209042 -0.00034148546 0.02819162 0.0006329548 0.00054018735 0.0005035984
-0.014517879 -0.019414524 0.0058699152 0.022533976 -0.00261158 0.00027076976 -0.0005717383 0.014954405
0.06807389 -0.008133784 -0.00040178024 0.00044018863 -0.00036348024 -0.009745369 0.0009924701 -0.00030181278
-0.02322147 -0.024861421 -0.018868703 -0.01736476 0.005517964 0.01809758 -3.969716e-05 -0.0004317262
-0.0149571635 0.03884629 -0.029795555 -0.002623552 -0.0010615875 0.031197283 -0.01843617 -0.00059919595
0.035577863 -0.01403289 0.00036626283 -0.040043008 -0.011679934 -0.05822434 0.00034870885 -0.012445915
-0.019298824 -0.0005909416 -0.020455819 -0.0145918215 -0.0004847653 -0.008433039 -0.030446663 -0.005886241
-0.032069806 0.0002748359 0.00029493915 -0.0038981389 0.04029408 -0.012135534 0.0004911556 -0.00052262086
00000000: 6f6a 3bbb f8cb dfb9 3d99 15ba a61c 163c
00000010: 07b4 41bd 1af2 bf39 f15e 0e3c fe51 df39
00000020: cdb4 8a3b 2396 17ba ed9e 3fb9 2d51 1b3c
00000030: b9b6 893b 5e41 abb9 4afd 5dbb 60e0 0a3b
00000040: fa2c 1bbc 4e35 0bba be62 f3bb 00e3 c43b
00000050: 0a37 55bd 9cb8 6d39 0802 233a 813a 343d
00000060: af8c e2bb 0901 a23c 576f f839 30b6 1b3a
00000070: d160 323a 8dce b6b9 1486 dc3c 7f0c 553b
00000080: 39ba 84bb 59ba 003d 3fc7 aa3c 38fa b0bc
00000090: 0fc3 94bc 9090 b2bc c80c 6fb9 8734 f6bc
000000a0: 3f51 bdbc e62f a53b 8f14 fe3c 0eee 2abd
000000b0: 0d64 43bd 8d8d 083d ce80 15ba 5998 083c
000000c0: 703e ad39 1acd fa39 0203 ebbc 4b8a 1c3b
000000d0: 7131 6b3c 7f37 8cbc b385 de39 423e 3cba
000000e0: 8ca0 193a aae1 07ba a063 093a 6987 18bc
000000f0: 4a95 97bd dd82 b839 6007 9abc c588 9b3c
00000100: 554d c63d 2869 1f3a 8ca4 8b39 5156 ebba
00000110: 4c73 53b9 bd4b dbbb 88fb cdbc 7bda bbbc
00000120: 99da 1cba 6c84 9a39 2e02 e339 3b04 00bc
00000130: 9cec b9b9 ef5c fa39 e2aa 163d bea7 16bd
00000140: 5f85 dcbb 3ec2 19bc f32e f2ba 130d a33b
00000150: 9def da39 c839 14ba 77cb e939 ed8d aeba
00000160: 62fd 1a3a 6809 283c f889 e6bb 5204 61bd
00000170: abce 143c 618c 83bc b0c6 243c 19eb e3bc
00000180: 9bd9 ac39 7848 91bc 0fdb 343c d0bc 70bc
00000190: 1f3d 8cbd 1000 feb9 b10f f6bb baf8 63bc
000001a0: 2e96 963b 7b8b 02bc 459a 0eba b0f1 be39
000001b0: fae8 8339 4970 e53b 989c 90bb fbe7 d73b
000001c0: b12c 01ba 55b0 3dbc e8dc 82bc f219 f7b9
000001d0: 4678 1abd 35c3 1039 9845 c13b 5278 19bc
000001e0: 7d4e 0f3a ccad de3d 52a3 22ba 80ea b4b9
000001f0: d909 a939 c75a 50bc dd96 a2bc a334 e4bc
00000200: 57d6 523a 30f8 cc39 0f08 483b 73c0 f739
00000210: 8a53 db3c 98d4 10bd ea0c 84bc e583 aebc
00000220: 8fc6 8db9 3615 253a 1ea4 a6b9 abed c8b9
00000230: 626c 45bc d17a 0cb9 0162 75bc 0572 1e3a
00000240: a534 92bc 1065 c039 4cb4 bd3c 54cf d1bc
00000250: 3511 2bbd cce3 003a 91db 343a a748 04bd
00000260: 1960 93b9 1daa 46bc 70ef 08ba c049 bdba
00000270: 1473 473b 9a68 5b3c 96f7 d93c 66d8 153a
00000280: 2c71 b1bc 803f 14ba 6b64 f6bc 6ba4 4fbc
00000290: 8f59 e4b9 a6b0 10ba 8590 24ba 9fa4 203a
000002a0: 6c60 6b3c eca7 3e3c 808a fdba b3bb 08ba
000002b0: 5821 4abc 6d54 a5bc f331 a4b9 4750 a93c
000002c0: 1067 93bc f2c7 afba cabc 34bd 9ce5 183a
000002d0: a59d f639 202f 233a 377c 21bc 71a6 d8bb
000002e0: 6068 da39 1759 45bc ba17 c5bd d0ef ee39
000002f0: 2ee9 0abc 3b47 b6bc b749 13ba 11a9 cd39
00000300: dfe5 ef39 f861 aabc 89e5 93b9 6709 b3b9
00000310: 1df2 e63c e1ec 253a 5c9b 0d3a eb03 043a
00000320: 66dc 6dbc 350b 9fbc 6b58 c03b 2c99 b83c
00000330: 0b27 2bbb 1af6 8d39 b5e0 15ba 5203 753c
00000340: 536a 8b3d 9043 05bc 08a6 d2b9 1ec9 e639
00000350: 7e91 beb9 0aab 1fbc c515 823a a03c 9eb9
00000360: f43a bebc 2eaa cbbc 8a92 9abc 8b40 8ebc
00000370: 09d0 b43b 6041 943c 8080 26b8 4f59 e2b9
00000380: e40e 75bc 4a1d 1f3d cf15 f4bc e6ef 2bbb
00000390: f724 8bba 7291 ff3c 7307 97bc 5c13 1dba
000003a0: 18ba 113d 35ea 65bc f706 c039 2304 24bd
000003b0: 325d 3fbc a57c 6ebd e9d2 b639 f3e9 4bbc
000003c0: 9118 9ebc 6be9 1aba f692 a7bc 8912 6fbc
000003d0: 1928 feb9 bb2a 0abc 486b f9bc 5ee1 c0bb
000003e0: a15b 03bd da17 9039 10a2 9a39 eb77 7fbb
000003f0: 680b 253d 1ed4 46bc e5c0 003a 7e00 09ba

actor.4.weight f4 [256, 256]
-0.00902808 7.651199e-05 -0.0010914697 0.01559801 -0.013813392 0.0002253904 0.0027398523 0.0007347576
0.01727472 -0.001076974 -0.0010922907 -0.037730277 0.0006832635 -0.0004940643 0.015953438 0.018302575
-0.022841629 -0.0002909391 0.006133319 -0.007756793 0.04684585 0.0004626555 0.00091593596 -0.004485376
-0.0055205193 0.0055240165 8.0779515e-05 0.0065603345 -0.0008631833 -0.0005032964 -0.0036511056 0.0010118636
-0.0019387896 -0.01433494 0.0044982536 -0.005976782 0.0026752406 0.0052206777 -0.0099949315 0.04111937
0.02062876 -0.0008353205 0.0033254079 -0.00018233182 0.0005601711 0.00424245 -0.0010453877 -0.0008036317
0.0003792919 0.0010739926 0.024289513 -0.009570992 0.0040417854 -0.05207491 -3.3720593e-05 0.00097266206
-0.00055890833 -0.00083352474 0.0007996753 0.018914798 0.010865065 0.00079172174 -0.030664034 -0.021003779
-0.09444309 0.0009909167 0.0010721516 -0.009196557 -0.0005225383 0.014405167 -0.0431937 0.005564839
-0.000973117 0.00092847965 0.0006100434 0.0024711725 -0.00054141047 0.00016783927 -0.038849298 0.004448805
0.005609951 -0.04879996 0.0052645104 0.0038047433 0.001070711 -0.001116024 -4.2114294e-05 -0.008388025
-0.0009397396 -0.015451613 -0.013458826 -0.017036337 0.036939684 -0.018540079 -0.02217429 0.001559159
0.00019477047 -0.006986144 -0.015520957 0.015989056 0.012838402 -0.00071040343 0.008053243 -0.0060539986
-0.026042575 -0.0049203946 -0.0009774392 0.0003969508 0.00076333754 -0.03551863 -0.028549284 0.015484552
-0.0011631193 -0.009635875 -0.030249117 -0.0016189606 0.016957028 -5.427743e-05 -0.008241268 -0.026984714
-0.0011264202 -0.060970344 -0.0010388297 -0.00012191461 0.0003346514 0.01648936 -0.0009398684 -0.000106851905
-0.00091644767 3.6621856e-05 -0.005458628 2.1745731e-05 0.0009958595 -0.025937773 -0.009197003 0.007263294
-0.0007237031 0.00095676025 -0.0004444226 -0.0006320448 0.002511337 0.014356323 -0.012561716 0.000985145
-0.03643135 9.3450144e-05 -0.011446938 -0.017416738 -0.025609504 0.00089123053 0.00063862384 -0.010221787
-7.3059324e-05 0.003009574 -0.0011178955 -0.006980929 0.008043755 0.009711814 -0.013403388 0.0009366873
0.0067055123 -0.0008153644 -0.018724835 -0.069316305 -0.0008311065 -0.0009943463 -0.0010339859 0.00091343437
-0.0032027988 0.0018713707 -0.0017933709 -0.00092838734 0.023920812 0.0030211587 -0.00040996107 0.027930873
-0.0068176496 0.01093302 -0.009282327 0.0009869235 2.6825288e-05 -0.000204102 0.0024890462 0.015863795
0.00062659755 -0.033146143 -0.0017416007 -2.3396351e-05 -0.014217435 -0.020136781 -0.0010517215 -7.68904e-05
0.00064680935 0.016424172 -0.00017800843 0.00019681678 -0.01980283 0.00092172396 0.0010649447 0.0010712537
0.016847258 -0.0075258333 0.015151343 -0.033651948 0.0027946779 0.0006987605 -0.00108551 0.008885348
0.0011471723 0.0376881 -0.0008044557 0.00062876084 -0.00090136076 -0.010306357 -0.027010895 -0.0002803704
0.018108165 -0.004299279 0.007973589 -0.011392636 -0.01170581 -0.009702018 -0.00064167095 -0.00084333424
-0.0057289945 0.0027915782 0.018575436 0.013948613 -0.0043023434 -0.040026836 -0.023581391 -0.0009913135
-0.015880568 -0.017530873 -0.00043728674 0.019583484 0.021572884 0.02045713 7.9426e-05 -0.009501884
0.03922738 0.00081187044 0.004189372 -0.027526762 -0.0006599024 0.022761798 0.0032628262 -0.005074309
0.022763727 0.0010074198 0.00026086057 0.0022086343 -0.007836476 0.009441455 -0.0006331776 -0.0009946249
00000000: 83ea 13bc 1075 a038 a50f 8fba cc8e 7f3c
00000010: 9151 62bc c656 6c39 188f 333b bf9c 403a
00000020: b783 8d3c 4029 8dba 322b 8fba 108b 1abd
00000030: 0a1d 333a 1884 01ba c9b0 823c 48ef 953c
00000040: 5e1e bbbc 2f89 98b9 02fa c83b b22c febb
00000050: 6fe1 3f3d 9290 f239 6c1b 703a 10fa 92bb
00000060: 79e5 b4bb cf02 b53b 2c68 a938 13f8 d63b
00000070: 4047 62ba a6ef 03ba 6347 6fbb 82a0 843a
00000080: fc1e feba 19dd 6abc 1666 933b e2d8 c3bb
00000090: 1753 2f3b 3812 ab3b c8c1 23bc c96c 283d
000000a0: a5fd a83c 69f9 5aba 16ef 593b 5330 3fb9
000000b0: 72d8 123a 4004 8b3b 6405 89ba cfaa 52ba
000000c0: b2db c639 36c5 8c3a cdfa c63c a6cf 1cbc
000000d0: f470 843b 804c 55bd 366f 0db8 3ffa 7e3a
000000e0: b483 12ba e680 5aba 4da1 513a 35f3 9a3c
000000f0: 6303 323c 8c8b 4f3a 2433 fbbc 1e10 acbc
00000100: 616b c1bd a6e1 813a 7087 8c3a 28ad 16bc
00000110: f4fa 08ba a603 6c3c e1eb 30bd 4159 b63b
00000120: c718 7fba 3765 733a 52eb 1f3a 65f3 213b
00000130: 71ed 0dba 03fe 2f39 7120 1fbd 48c7 913b
00000140: aed3 b73b 78e2 47bd ea81 ac3b 0059 793b
00000150: 1957 8c3a 8d47 92ba e1a3 30b8 ed6d 09bc
00000160: db58 76ba c328 7dbc 6882 5cbc ca8f 8bbc
00000170: 114e 173d 5de1 97bc dba6 b5bc b25c cc3a
00000180: 4d3b 4c39 06ec e4bb 9d4b 7ebc 7bfb 823c
00000190: 2958 523c 5e3a 3aba c0f1 033c 9f60 c6bb
000001a0: 3d57 d5bc 433b a1bb 6b1d 80ba d61d d039
000001b0: b71a 483a fc7b 11bd 30e0 e9bc ebb2 7d3c
000001c0: cf73 98ba cadf 1dbc ffcc f7bc 4e33 d4ba
000001d0: 77e9 8a3c f2a7 63b8 6206 07bc 0c0f ddbc
000001e0: 64a4 93ba 0abc 79bd 5729 88ba 68ac ffb8
000001f0: 2774 af39 b214 873c 8061 76ba ae15 e0b8
00000200: c33d 70ba 6b9a 1938 4ade b2bb 9a6a b637
00000210: 8087 823a 747b d4bc 07af 16bc ed00 ee3b
00000220: e5b6 3dba 18cf 7a3a 6401 e9b9 cfaf 25ba
00000230: 3e95 243b c836 6b3c a8cf 4dbc fb1f 813a
00000240: 0a39 15bd aafa c338 f08b 3bbc 8cad 8ebc
00000250: 06cb d1bc 78a1 693a 5269 273a 4879 27bc
00000260: 6d37 99b8 463c 453b 5986 92ba 47c0 e4bb
00000270: f4c9 033c 4d1e 1f3c e299 5bbc 058c 753a
00000280: eab9 db3b 2ebe 55ba d364 99bc b5f5 8dbd
00000290: 9dde 59ba ba54 82ba cf86 87ba 8b73 6f3a
000002a0: 0ce6 51bb c848 f53a 8b0f ebba 055f 73ba
000002b0: 94f5 c33c a2fe 453b 0bf0 d6b9 49cf e43c
000002c0: 9766 dfbb 6920 333c e714 18bc a85b 813a
000002d0: de06 e137 3704 56b9 441f 233b caf4 813c
000002e0: 4042 243a 40c4 07bd 6c46 e4ba 4843 c4b7
000002f0: 3ff0 68bc e4f5 a4bc ebd9 89ba 3840 a1b8
00000300: a48e 293a fc8b 863c c6a7 3ab9 9a60 4e39
00000310: 8b39 a2bc d99f 713a 9d95 8b3a 4f69 8c3a
00000320: 4303 8a3c 449b f6bb 573d 783c a0d6 09bd
00000330: ea26 373b 062d 373a ac47 8eba da93 113c
00000340: b75c 963a d65e 1a3d 1ce2 52ba 6dd3 243a
00000350: 4c49 6cba ffdb 28bc f445 ddbc aefe 92b9
00000360: 9357 943c f7e0 8cbb a8a3 023c 2ea8 3abc
00000370: bac9 3fbc 37f5 1ebc cf35 28ba 3413 5dba
00000380: 4aba bbbb e9f2 363b 832b 983c b988 643c
00000390: acfa 8cbb 2ef3 23bd c32d c1bc f6ee 81ba
000003a0: f717 82bc e89c 8fbc a243 e5b9 8b6d a03c
000003b0: 9eb9 b03c b695 a73c 8291 a638 caad 1bbc
000003c0: e4ac 203d b4d3 543a 0047 893b ce7f e1bc
000003d0: 4dfd 2cba f376 ba3c 24d5 553b 6446 a6bb
000003e0: ff7a ba3c 660b 843a 1dc4 8839 bcbe 103b
000003f0: 9064 00bc 55b0 1a3c d4fb 25ba 135e 82ba

actor.4.bias f4 [256]
-0.014745399 0.0019713156 1.8246988e-05 -0.00019048117 -0.0014779267 -1.771741e-05 0.00019335918 -0.030516878
-0.04582145 -0.0001060557 -0.046718385 -0.031661633 0.00024699225 -0.049858276 -0.0002758127 0.00018317687
0.00020808965 0.0002299544 -0.00016918073 0.009634436 0.0001278689 -0.032436308 -0.000114011105 -0.02663971
0.0001322689 -0.00012459622 -0.00028629994 -0.00013952861 -0.0060646543 0.00020967274 -0.0064572715 -0.0065789926
-0.036669154 0.00024549925 0.0018422821 -0.07283998 -0.0614133 0.0006974093 -0.000234712 -0.00016642206
-0.0002986138 -0.00018703396 -2.8635193e-05 8.701671e-06 -0.021552565 -0.00023341905 0.022334853 -0.02220757
-0.0041340855 0.0014732111 -0.04267805 0.00012210199 0.00018953912 0.008117031 -0.029089386 -0.017800776
-0.008731198 -0.030541949 -0.030418588 -3.1949974e-05 -3.8508362e-05 2.3212595e-05 0.011805355 7.265808e-05
-0.011450477 -4.578707e-05 5.759016e-05 -0.00025651202 0.012178 -0.047592428 -0.00022323351 0.0065583386
-0.00017700867 0.00020407002 -0.00019080646 3.125681e-05 -0.009741183 -0.025811892 -0.040503476 -0.00022165068
-0.0470057 -0.022400899 -0.00029780937 -0.00024455404 -0.04228656 -0.031034876 0.0002798543 -4.7046975e-05
-0.06539409 0.0100802835 -0.047112893 -1.833765e-05 -1.4471333e-05 -0.047547664 -0.008161932 -0.0048557525
-0.042355563 -0.061663434 -0.0094730975 -0.007094314 -0.00013710067 -0.03758453 -0.005535858 0.0005224261
2.121461e-06 -0.012012176 -0.011800653 -0.00026000425 -0.030708842 0.0031213774 -0.0053714705 -0.041475438
-0.00022503745 -9.994552e-05 0.011562206 -0.07700223 -0.008118459 -0.03961235 -0.06660706 -0.00020075329
-7.591806e-05 -2.6838698e-05 -0.018883614 -0.00017496932 0.0001434895 -0.009753964 0.0031230971 -0.056421474
-0.05909613 0.0001221526 0.00023621353 -0.00026510618 -0.00012341185 -0.08696429 -0.00020133461 -0.027988933
-0.01227277 -0.0059766266 -0.057736862 -0.032022815 -0.060698554 -0.00022004888 -0.004046756 1.0223693e-05
-0.054448646 0.00022127414 -0.029475734 2.3195798e-05 0.00015119783 -3.8244398e-05 -0.04484756 -0.0028906818
-0.0021189058 -0.051040016 0.010914933 0.00010789613 0.041691244 -8.498949e-06 -0.032995503 -0.0075158346
-0.058503203 3.178556e-05 -0.032951716 -4.070048e-05 0.01534867 -0.008003534 0.0014464402 0.0078607295
-0.024787027 -0.040209506 -0.024380783 -9.225579e-05 -0.024933208 0.0039046383 0.00056194287 -3.9595314e-05
0.0015256008 -0.0017354963 -0.01222281 0.0075524687 -0.011268722 -0.0002632102 5.255109e-05 0.00012433734
-0.0012452833 0.00020582502 -3.6380974e-05 -0.07710201 -0.000120154386 -0.020680645 -3.9674775e-05 -0.0023498908
0.00018995932 1.15333605e-05 0.000112550486 -0.0036751109 -0.0002508191 -0.079047546 -0.051275514 -0.036064498
0.00014483764 -0.0001351306 -0.055358503 -0.05945384 -8.026791e-05 -0.054636005 -9.054238e-06 0.0008677403
-0.044645384 -0.06278693 0.017346116 -0.00023293572 -0.0002094439 -0.000114071496 2.5058198e-05 -0.007096413
-0.0067094187 0.00041581545 0.00022565108 -0.055155132 0.013582901 -0.065925196 0.0103791095 -0.033338536
0.00013590122 -0.07281689 -0.011883147 0.013675601 -0.0060980455 0.00058750366 -0.000117739815 -0.017736185
-0.0006164621 0.00014200155 -0.0113270795 0.00015007303 -0.00022423317 -0.04448479 -0.00012375407 0.0020091236
-0.044331204 -0.02669082 0.00076139823 0.00022800168 0.013625698 -0.016113814 0.00024951698 -0.034499086
2.836041e-05 -0.016122699 -0.0373649 2.7818314e-05 2.3197861e-05 -0.007963562 -0.00022110727 -0.0001936578
00000000: b096 71bc 3031 013b 1c11 9937 e6bb 47b9
00000010: feb6 c1ba d99f 94b7 76c0 4a39 88fe f9bc
00000020: 46af 3bbd 386a deb8 c75b 3fbd a1af 01bd
00000030: bd7e 8139 3138 4cbd f49a 90b9 2b13 4039
00000040: a432 5a39 ea1f 7139 1b66 31b9 c1d9 1d3c
00000050: 8c14 0639 efdb 04bd 3f19 efb8 853b dabc
00000060: aab1 0a39 0ba6 02b9 871a 96b9 6d4e 12b9
00000070: 02ba c6bb 99db 5b39 8597 d3bb 9794 d7bb
00000080: 6532 16bd 5ab6 8039 bb78 f13a 212d 95bd
00000090: 838c 7bbd 59d2 363a 061d 76b9 9581 2eb9
000000a0: 448f 9cb9 8c1e 44b9 9c35 f0b7 64fd 1137
000000b0: 018f b0bc f3c1 74b9 95f7 b63c a6ec b5bc
000000c0: 3977 87bb c318 c13a 2ecf 2ebd 8108 0039
000000d0: 05bf 4639 4cfd 043c dd4c eebc efd2 91bc
000000e0: 4c0d 0fbc 1c33 fabc 6730 f9bc 0602 06b8
000000f0: 0a84 21b8 abb8 c237 3f6b 413c 0260 9838
00000100: c89a 3bbc 7e0b 40b8 f78c 7138 767c 86b9
00000110: 3c86 473c 47f0 42bd ca13 6ab9 55e7 d63b
00000120: 679b 39b9 a1fb 5539 3813 48b9 bf19 0338
00000130: 7c99 1fbc 7673 d3bc f9e6 25bd e76a 68b9
00000140: 0d89 40bd 1782 b7bc 4c23 9cb9 7d37 80b9
00000150: ac34 2dbd da3c febc 69b9 9239 4e54 45b8
00000160: 56ed 85bd c627 253c 73f9 40bd ced3 99b7
00000170: e7c9 72b7 57c1 42bd a0b9 05bc 011d 9fbb
00000180: 077d 2dbd cc92 7cbd 0d35 1bbc 6b77 e8bb
00000190: aec2 0fb9 3cf2 19bd 2566 b5bb 6cf3 083a
000001a0: 6c5e 0e36 b8ce 44bc 8757 41bc 2e51 88b9
000001b0: 1c91 fbbc 0690 4c3b 2903 b0bb 26e2 29bd
000001c0: 08f8 6bb9 d899 d1b8 686f 3d3c 58b3 9dbd
000001d0: 4903 05bc 8f40 22bd 4869 88bd 4d81 52b9
000001e0: 3336 9fb8 aa23 e1b7 cfb1 9abc f877 37b9
000001f0: ab75 1639 17cf 1fbc e0ac 4c3b 341a 67bd
00000200: c90e 72bd 1716 0039 16b0 7739 f3fd 8ab9
00000210: 1e68 01b9 551a b2bd 591d 53b9 0c49 e5bc
00000220: ba13 49bc 94d7 c3bb 7d7d 6cbd 5b2a 03bd
00000230: 0c9f 78bd ecbc 66b9 a69a 84bb 6d86 2b37
00000240: 8b05 5fbd d305 6839 1877 f1bc 9994 c237
00000250: dc8a 1e39 9c68 20b8 13b2 37bd 9871 3dbb
00000260: 57dd 0abb 560f 51bd 8cd4 323c 4b46 e238
00000270: 70c4 2a3d b596 0eb7 4b26 07bd 6447 f6bb
00000280: 0ea1 6fbd 7c51 0538 61f8 06bd cfb5 2ab8
00000290: fd78 7b3c 4121 03bc 7b96 bd3a 4aca 003c
000002a0: 2a0e cbbc b9b2 24bd 35ba c7bc 7379 c1b8
000002b0: ba40 ccbc f6e4 7f3b 594f 133a 2513 26b8
000002c0: abf6 c73a 9879 e3ba 2e42 48bc b37a f73b
000002d0: 72a0 38bc 7aff 89b9 4e6a 5c38 8d60 0239
000002e0: c638 a3ba bcd2 5739 c697 18b8 a9e7 9dbd
000002f0: 65fb fbb8 756a a9bc 7768 26b8 a000 1abb
00000300: d12f 4739 687f 4137 1509 ec38 21da 70bb
00000310: 5f80 83b9 aee3 a1bd 4606 52bd 5eb8 13bd
00000320: 8fdf 1739 d8b1 0db9 99bf 62bd df85 73bd
00000330: 8255 a8b8 01ca 5fbd a8e7 17b7 1179 633a
00000340: 14de 36bd 6f96 80bd 7119 8e3c 3540 74b9
00000350: 2b9e 5bb9 ab39 efb8 1234 d237 0789 e8bb
00000360: afda dbbb ce01 da39 c09c 6c39 59ea 61bd
00000370: d18a 5e3c ca03 87bd 240d 2a3c fd8d 08bd
00000380: b580 0e39 0621 95bd 88b1 42bc a10f 603c
00000390: 1dd2 c7bb b402 1a3a 15eb f6b8 7a4b 91bc
000003a0: 129a 21ba 40e6 1439 3795 39bc ec5c 1d39
000003b0: 2220 6bb9 af35 36bd fbc3 01b9 80ab 033b
000003c0: a394 35bd b5a6 dabc 9298 473a bc13 6f39
000003d0: 523e 5f3c 1e01 84bc 9ad1 8239 ea4e 0dbd
000003e0: 84e7 ed37 c013 84bc f00b 19bd 605b e937
000003f0: 0799 c237 9a79 02bc 08d9 67b9 9f10 4bb9

actor.6.weight f4 [12, 256]
-0.06065634 -0.14609018 0.0024750629 7.625177e-05 -0.0720709 2.0271684e-05 -4.5668457e-05 -0.024830328
-0.095077746 8.180969e-06 -0.15301155 -0.019664263 -2.0159287e-06 -0.064401 -6.5670836e-05 -8.497786e-06
-4.181407e-05 -5.8119145e-05 -6.3499197e-06 0.02114084 8.407546e-06 -0.2188434 5.038331e-06 0.20662534
6.7472906e-06 0.0018130399 0.0003316282 -4.7117433e-06 0.09318057 -0.00011798658 0.21700796 0.02726413
0.15402323 -1.7485598e-07 0.24552333 0.08635737 0.13386293 -0.0034651682 5.2174422e-05 -0.0006791047
0.00015767281 3.7572307e-05 -0.002466546 1.1777525e-05 -0.046045575 1.47937535e-05 0.06737053 -0.064471126
0.019916307 -0.032507226 -0.043772515 -7.3065006e-05 -4.760456e-05 0.03145251 0.030616723 0.06071745
-0.082438365 -0.015405415 -0.06460214 -0.0026877394 0.00028519952 -0.00024564713 -0.00066048506 -1.3516297e-05
0.06979172 1.002558e-05 1.1543911e-05 0.00010867969 -0.014044796 -0.02710443 1.0691283e-05 0.02760386
2.7814167e-05 -0.0001179421 3.6395453e-05 0.0007828005 0.015431666 0.025083764 -0.023404516 4.6923135e-05
0.17424263 -0.057715815 -0.00011749594 9.3676885e-05 0.06576249 -0.06344458 1.0526918e-05 -0.00020147758
-0.09197819 -0.01370998 0.09064232 -0.002699899 0.00045267324 -0.12154079 -0.022056885 -0.005878876
0.07427463 0.33174327 -0.24262504 -0.013509413 0.0013515648 -0.10628631 0.040990643 0.006066677
-0.00047221952 0.04282559 -0.019286478 5.627648e-05 0.043158628 -0.05537058 -0.025192767 0.0070684925
2.3027183e-05 9.675966e-06 -0.030348366 0.023795867 -0.090683006 -0.07016314 0.27955374 9.1503425e-06
-0.056974854 -0.002757262 -0.04756257 2.7179261e-05 1.248487e-05 0.0932645 0.035907596 0.118767194
-0.0103287 -7.3297626e-05 -5.626763e-05 9.837943e-05 1.1558705e-06 0.07320703 0.0013982785 -0.026456196
0.010055553 -0.024563046 -0.07435074 -0.16230914 -0.006403342 4.280207e-05 -0.0014795789 -1.3624632e-05
0.022202052 -5.0257604e-05 -0.029303625 0.0026564824 4.3103487e-06 0.0002556824 0.03921116 -0.008458545
0.069919616 -0.06896627 -0.046921983 5.738313e-07 -0.020894703 0.0019563898 -0.15966211 0.026613144
0.04177288 0.0026236314 0.1027504 -0.00097544584 0.25508964 -0.22075509 -0.14696547 -0.1319978
-0.019482844 -0.27058616 -0.06654795 1.2585563e-05 -0.020761624 -0.008172086 -0.0017995487 1.8068638e-05
0.06535709 -0.08588467 -0.015892241 0.030176248 -0.009542245 1.9147634e-05 0.00016104804 1.6977885e-05
-0.05424526 3.6043261e-06 -0.0021775803 -0.06183604 0.0023703247 0.03101826 0.00025783616 0.024309196
-2.7963577e-05 0.0005626292 2.6304917e-06 0.014734777 5.6432185e-05 0.29596022 0.031212943 0.056804538
1.3107294e-05 -1.2066095e-05 0.035020985 -0.062657855 -0.0004402418 0.0054579666 0.0017949414 0.00047354144
0.014372159 -0.2551483 0.08118246 5.1354746e-05 -6.939283e-06 0.0022624987 -0.00011469252 0.10988423
-0.0038413059 -0.0006844813 -5.4883374e-05 -0.017648572 0.033846546 0.014672327 0.007034291 0.11989054
-1.7812228e-05 -0.0023388604 -0.23695134 0.015585925 0.05297566 0.094260834 9.651747e-06 -0.015829086
-0.07019319 7.0056713e-06 -0.026816161 7.722394e-06 4.975497e-05 0.025878252 9.849091e-07 -0.06114608
0.10070467 -0.06614113 0.0009263479 -5.5361845e-05 0.006193367 -0.0262413 -0.00012641815 0.024004648
0.0032694733 -0.034155443 0.101981945 0.0024485737 -0.0014683302 0.1345387 4.4967266e-05 3.66621e-05
00000000: c872 78bd aa98 15be aa34 223b 5be9 9f38
00000010: e899 93bd 1c0d aa37 228c 3fb8 f968 cbbc
00000020: 1fb8 c2bd ff40 0937 0faf 1cbe f316 a1bc
00000030: 6449 07b6 ace4 83bd c3b8 89b8 b791 0eb7
00000040: 8461 2fb8 f5c4 73b8 6511 d5b6 8e2f ad3c
00000050: 230e 0d37 7c18 60be ef0e a936 9895 533e
00000060: c966 e236 86a3 ed3a 62de ad39 9119 9eb6
00000070: 74d5 be3d 906f f7b8 5637 5e3e 0659 df3c
00000080: 44b8 1d3e 0cc0 3bb4 786a 7b3e 22dc b03d
00000090: 5d13 093e e017 63bb dcd5 5a38 f205 32ba
000000a0: f954 2539 f596 1d38 c6a5 21bb 1698 4537
000000b0: 499a 3cbd b032 7837 8ff9 893d 7009 84bd
000000c0: 8627 a33c 4c26 05bd cf4a 33bd 7a3a 99b8
000000d0: 02ab 47b8 59d4 003d eccf fa3c dcb2 783d
000000e0: 72d5 a8bd fe66 7cbc 204e 84bd c924 30bb
000000f0: d586 9539 33ca 80b9 6724 2dba 0ec4 62b7
00000100: f6ee 8e3d 8a33 2837 b8ac 4137 f7ea e338
00000110: 251c 66bc 1c0a debc b65e 3337 7d21 e23c
00000120: 7852 e937 af57 f7b8 52a7 1838 da34 4d3a
00000130: 19d5 7c3c 777c cd3c d4ba bfbc 55cf 4438
00000140: a96c 323e 6b67 6cbd 2768 f6b8 6574 c438
00000150: 7cae 863d 3bef 81bd c59c 3037 ba43 53b9
00000160: 105f bcbd d39f 60bc aea2 b93d caf0 30bb
00000170: c654 ed39 61ea f8bd a4b0 b4bc 96a3 c0bb
00000180: 4c1d 983d 41da a93e b372 78be 9656 5dbc
00000190: fd26 b13a a3ac d9bd cee5 273d faca c63b
000001a0: 3b94 f7b9 e369 2f3d adfe 9dbc 690a 6c38
000001b0: 1ac7 303d 43cc 62bd 1061 cebc d09e e73b
000001c0: 802a c137 f555 2237 239d f8bc 8def c23c
000001d0: 03b8 b9bd b1b1 8fbd ab21 8f3e 6c84 1937
000001e0: 775e 69bd 2eb3 34bb f8d0 42bd 05ff e337
000001f0: 1c76 5137 7501 bf3d d813 133d 373c f33d
00000200: b539 29bc 5db7 99b8 e800 6cb8 0e51 ce38
00000210: 6823 9b35 91ed 953d 7146 b73a aaba d8bc
00000220: 0cc0 243c 7138 c9bc 3345 98bd 5e34 26be
00000230: 20d3 d1bb 5f86 3338 6eee c1ba 5995 64b7
00000240: 14e1 b53c b1cb 52b8 280e f0bc 6118 2e3b
00000250: 9da1 9036 1c0d 8639 e29b 203d b695 0abc
00000260: 0432 8f3d 303e 8dbd 4431 40bd 6309 1a35
00000270: 5e2b abbc c636 003b 777e 23be cf03 da3c
00000280: 0a1a 2b3d 3bf1 2b3b cd6e d23d 10b5 7fba
00000290: 1c9b 823e 9f0d 62be 1e7e 16be 6e2a 07be
000002a0: 7c9a 9fbc 458a 8abe 4b4a 88bd 9526 5337
000002b0: 4814 aabc 37e4 05bc d6de ebba 1b92 9737
000002c0: f0d9 853d 4de4 afbd 7230 82bc 2e34 f73c
000002d0: 1457 1cbc 3b9f a037 01df 2839 bb6b 8e37
000002e0: 4730 5ebd dae1 7136 bcb5 0ebb ca47 7dbd
000002f0: 7357 1b3b 021a fe3c 2f2e 8739 1424 c73c
00000300: 5393 eab7 687d 133a 8187 3036 226a 713c
00000310: 99b1 6c38 1988 973e 49b2 ff3c e0ab 683d
00000320: 66e7 5b37 7c6f 4ab7 2a72 0f3d c352 80bd
00000330: 41d0 e6b9 bed8 b23b 3d44 eb3a a845 f839
00000340: 3479 6b3c cca2 82be fd42 a63d bd65 5738
00000350: fdd7 e8b6 6e46 143b 1487 f0b8 fc0a e13d
00000360: 6bbe 7bbb c36e 33ba 9332 66b8 bd93 90bc
00000370: ada2 0a3d 3364 703c e97f e63b 2c89 f53d
00000380: 786b 95b7 9147 19bb 5fa3 72be 1c5c 7f3c
00000390: 01fd 583d d30b c13d f0ed 2137 00ac 81bc
000003a0: 72c1 8fbd 4212 eb36 91ad dbbc 6e8f 0137
000003b0: feaf 5038 a1fe d33c 3831 8435 5074 7abd
000003c0: 403e ce3d 0075 87bd 28d6 723a 5434 68b8
000003d0: baf1 ca3b fff7 d6bc 1d8f 04b9 65a5 c43c
000003e0: a944 563b 94e6 0bbd e9db d03d 4078 203b
000003f0: fc74 c0ba 83c4 093e 3c9b 3c38 a1c5 1938

actor.6.bias f4 [12]
0.009813964 0.02885539 0.062067315 -0.088699624 0.01891589 -0.03978705 -0.025327297 0.052469496
0.042607654 -0.013517525 0.03458687 -0.017351031
00000000: c0ca 203c 2462 ec3c 4c3a 7e3d 26a8 b5bd
00000010: 7ff5 9a3c bff7 22bd 317b cfbc 41ea 563d
00000020: 5d85 2e3d 9c78 5dbc f6aa 0d3d c023 8ebc
